HW3/Q1/best_baseline_model.pth (torch, 262896 bytes, 4 tensors)

conv1.weight f4 [32, 3, 5, 5]
000000 30 bc 14 be 45 cc 2e bd 21 95 0d bd e1 45 23 3d
       -0.14524913 -0.042675275 -0.03456605 0.039861564
000010 ad e2 d8 3d cc ed 5e bd 2d e7 a8 bd 42 ce 1a be
       0.1059011 -0.054426 -0.08247218 -0.15117744
000020 39 60 88 3d b9 8f 0a 3d 15 06 18 3d ba 61 d9 bd
       0.06658978 0.03382847 0.037115175 -0.10614343
000030 c2 4c f7 bd ff bf b0 3c 08 e3 15 bd 1f 1c 4f bc
       -0.12075187 0.021575926 -0.036593467 -0.012640982
000040 8a df 47 3d 91 2b ae 3d fb 9d b8 bd b8 49 03 be
       0.048797168 0.085044034 -0.090145074 -0.1282109
000050 42 26 c3 bd 3c b9 8f 3b 7e 82 89 3d f8 1b b0 3d
       -0.095287815 0.0043860953 0.067143425 0.085990846
000060 58 a9 61 3b 0b 73 5b 3a 4d 46 c7 bc 89 e1 a6 3d
       0.0034433212 0.000837133 -0.024325514 0.08148486
000070 c4 8c 32 bd 61 ed 86 3d e0 ea 93 3d 50 be 9d 3d
       -0.043591276 0.06588245 0.07222533 0.07702315
000080 d7 30 a8 bd ef 1b 0f 3d 9c af 47 3b f4 38 65 3d
       -0.082124405 0.03493875 0.0030469662 0.055962518
000090 2e a2 1d bb d4 1d ac 3d 46 e5 b7 bd 56 40 ee 3d
       -0.0024052965 0.08404127 -0.08979277 0.11633365
0000a0 dc 89 04 be 0b 92 6b bd 2d 40 8a 3c 10 c1 e8 bd
       -0.12943214 -0.057512324 0.016876305 -0.11364949
0000b0 f5 d7 1e bd 30 5c a5 bd 73 76 7d 3c 8c 6a d8 3c
       -0.03878017 -0.08074224 0.015470135 0.026417993
0000c0 ed 78 c0 3c db 72 16 3d 2b f9 4f 3e 21 ad 20 3e
       0.023495162 0.03673063 0.20309894 0.15691043
0000d0 62 22 b4 3d d8 4b 00 3e 89 a2 f9 3d 7c c5 ca 3c
       0.087956205 0.12528932 0.12189204 0.024752371
0000e0 5d 58 17 bc f4 0f 32 3e 96 09 18 3d e7 62 ef 3d
       -0.009237376 0.17388898 0.037118517 0.11688786
0000f0 f6 53 02 3e 97 4a c1 3d 01 cf 3c 3e ad b9 f2 3d
       0.12727341 0.09438055 0.1843834 0.11851821
000100 fc 73 a6 3d 5d f5 c0 3d d8 e4 dc bc a2 5e 93 bc
       0.08127591 0.09421799 -0.02696459 -0.01798946
000110 cb d2 36 3e c6 7a 35 3e 64 46 8a 3d bb 13 0a 3e
       0.17853849 0.17722616 0.06751707 0.13484089
000120 34 27 d4 3d 9e aa 1a 3e 68 84 64 bd 0e 10 31 3d
       0.1035904 0.15104148 -0.055790335 0.0432282
000130 0e 6d a3 3d d2 49 cb bd a2 a4 22 be d4 2a 96 3b
       0.07979785 -0.099261895 -0.15883115 0.004582742
000140 60 28 44 be b6 45 1b bc cd 9a ae be 83 5f 9c be
       -0.19156027 -0.00947707 -0.3410248 -0.3054162
000150 51 76 00 be c1 6a 75 be 1c a9 54 bd d4 b6 33 be
       -0.12545134 -0.23966505 -0.051919088 -0.17550212
000160 97 2a 29 bd 12 43 3a 3d b6 64 67 bd 7c 63 71 3e
       -0.041300382 0.04547412 -0.05649253 0.23573107
000170 93 35 ba bd ac d5 35 bc a5 aa 96 3e 53 59 77 3e
       -0.0909225 -0.011098307 0.29427066 0.24155168
000180 a9 5f c0 3e b9 b0 18 3e 9f 39 4b 3e 9c d2 b2 3e
       0.37572983 0.14911164 0.198462 0.34926307
000190 93 7f 96 3c 76 84 8d 3e c4 a1 d4 3c 33 6a 57 3c
       0.018371379 0.27640122 0.025956042 0.013147878
0001a0 6a c6 ab 3c d3 1b 4c 3a 25 78 52 3d d4 36 5a be
       0.020968635 0.00077861286 0.05138411 -0.21309978
0001b0 a9 d4 4b be b6 b9 ee bb a4 cb 7e bd f5 f2 f6 3d
       -0.19905342 -0.007285322 -0.062205926 0.12058059
0001c0 b6 51 9f bd 7f 90 96 bd cd d6 45 3d cc 57 a7 bd
       -0.07779257 -0.07351779 0.048300553 -0.08171043
0001d0 88 0e 8d 3d 57 a0 40 bd f2 2e db bd a3 63 0c 3e
       0.06887537 -0.047027912 -0.107023135 0.13709883
0001e0 91 99 83 bd 64 79 70 3e e3 f5 27 bd 10 2a 92 3b
       -0.06425775 0.23483807 -0.04100598 0.0044605806
0001f0 1d 62 7a 3d 43 8b e3 3d df a2 a3 3e f7 7d da 3d
       0.061128724 0.111105464 0.31960198 0.10668557
000200 fe 00 59 3e 9d bc 23 3e 50 a1 aa bd 95 a4 1e 3e
       0.21191785 0.15989919 -0.08331549 0.1549247
000210 b0 b3 1b 3d 3c 8e bf 3d 3b 6f 72 bc 71 3a 50 be
       0.03801316 0.09353301 -0.014797027 -0.20334794
000220 ae 7c e1 3c 84 d5 0d be ce 1a c5 3d 19 e3 0a bc
       0.027525272 -0.13850981 0.09624253 -0.008476996
000230 db 0b b5 bd 33 72 f2 bc a2 70 50 be 7a 1c bb 3b
       -0.08840152 -0.02959547 -0.20355466 0.005710182
000240 cc 3e 39 be d4 ed 8a bd ac 74 7f 3c bb 18 17 be
       -0.18090361 -0.06783643 0.015591782 -0.14755528
000250 04 1c c4 bd 22 7c f0 bd aa 9c 2b 3c 40 95 cf 3c
       -0.09575656 -0.117424265 0.010474363 0.025339723
000260 f6 47 5b bd 3f 85 ec bc 26 e7 c0 bd 7f 7d c7 3d
       -0.053535424 -0.02887213 -0.09419088 0.09740733
000270 61 05 32 3e d5 4b a2 bd a1 ef 09 be 08 c1 b5 bd
       0.17384864 -0.0792462 -0.13470317 -0.088747084
000280 70 7b a8 bc 22 54 3c 3e e5 c9 58 3d 01 3e f1 bc
       -0.020566672 0.18391469 0.052926917 -0.029448511
000290 63 a9 3c be c0 1d d1 3b bc 70 0e 3e dd 25 35 3e
       -0.18423991 0.0063817203 0.13910192 0.17690225
0002a0 e6 ce 65 3c b5 0e 53 be 91 29 0b bd 64 08 a2 3d
       0.014026379 -0.20611079 -0.033975188 0.07911757
0002b0 69 34 16 3c ef d1 b7 3d f4 16 a3 bc 38 4e 1c bd
       0.009167769 0.089755885 -0.019908406 -0.038160533
0002c0 73 69 88 3d 63 ed 1f be dd 60 6c be ba 70 58 bd
       0.06660738 -0.156179 -0.23083825 -0.05284188
0002d0 ed 1c 2f 3e 38 85 b7 3c b3 b0 c1 bd c9 a5 a5 bd
       0.17100878 0.02240239 -0.09457531 -0.08088262
0002e0 b2 bb 79 be 89 0d 13 3e 35 26 19 3e 2b c4 3b 3d
       -0.24388006 0.14360632 0.14955981 0.045841377
0002f0 b9 cb 5b be cc 43 48 be 75 cd f5 3d 9c 5e 37 3e
       -0.21464433 -0.19557112 0.120020784 0.17907184
000300 40 ac 7f bd de a7 68 bd f2 93 1c be 51 07 91 bb
       -0.06242013 -0.056800716 -0.15290812 -0.004425921
000310 99 be c0 3d 87 7d 29 3d 81 f3 de 3d cc 1d a9 bd
       0.094113536 0.041379478 0.108862884 -0.082576364
000320 42 12 3e 3e 29 55 4d bd 46 a0 4c 3b 3a c5 9b bd
       0.18561652 -0.050130043 0.003122346 -0.07605977
000330 40 15 5f be e9 16 ee 3c 49 ae ca 3d cb b5 89 bd
       -0.2178545 0.029063659 0.098965235 -0.067241274
000340 5e ba 09 be d6 8e 8f be dc 7e 1b 3e 00 19 72 3e
       -0.1345 -0.28038663 0.15185112 0.23642349
000350 fb b8 90 3d 8e 15 27 be 33 00 90 be ba 08 d9 3d
       0.07066532 -0.16316816 -0.28125152 0.105973676
000360 f2 31 0e 3e b4 e5 be 3d b1 dd a1 3d 86 15 f7 bd
       0.1388624 0.09321156 0.079036124 -0.12064652
000370 c2 32 9f 3d 22 91 79 3e e5 58 84 3e 9a e7 47 3d
       0.07773353 0.2437177 0.2584907 0.048804857
000380 94 8c 9d bc ba 40 77 3c 1c a0 93 bd 95 72 0e be
       -0.019232072 0.015091116 -0.07208273 -0.13910897
000390 7f e3 5c be d0 0c 2f 3e b6 8b d5 3d 21 37 52 3e
       -0.21571158 0.17094731 0.10427038 0.20528843
0003a0 0f 62 9d 3d d3 21 8c be 1d c8 b0 3d 4a e4 90 bd
       0.07684719 -0.27369556 0.086319186 -0.07074793
0003b0 0f 9a 4d 3e 1a a3 78 3e fd 3f 5c be d5 66 8a bd
       0.200783 0.24280968 -0.21508785 -0.06757895
0003c0 d0 19 2e be ef 8e 04 bd ae 08 47 3e e3 77 9d 3d
       -0.17002034 -0.032362875 0.19436905 0.07688882
0003d0 37 1f 43 bd e9 d8 56 bd dd d8 6c bd 92 6c 29 3e
       -0.04763719 -0.052452955 -0.057824004 0.16545323
0003e0 f3 26 1f bd 02 de 03 3e 7f ef 5b 3d d7 82 1a bc
       -0.038855504 0.12877658 0.0536952 -0.009430609
0003f0 a9 c9 64 be a0 a8 62 be 50 ef 83 3c 9d 0b a2 3d
       -0.22342552 -0.22134638 0.016105324 0.07912371

conv1.bias f4 [32]
000000 9b 0d 9e be ad ec 6d bc a7 27 0b bd 29 3f 09 bd
       -0.30869755 -0.01452176 -0.033973362 -0.0335075
000010 79 48 c1 bd 7e 2c 54 3d 21 18 ae bc ab 5f a4 3e
       -0.09437651 0.051800244 -0.02125174 0.3210424
000020 cc 69 83 be bc 84 6a be 1d 8c 5a 3e 93 99 0a 3e
       -0.25666654 -0.22902197 0.21342511 0.13535146
000030 4d d7 41 be 0b ed bc 3e dc 91 51 be 32 56 41 be
       -0.18929787 0.368996 -0.20465797 -0.18880537
000040 27 82 0a 3d 31 03 a1 be ff e2 b1 bd d4 9d fa be
       0.03381553 -0.31447747 -0.08685874 -0.48948538
000050 63 4b 64 bc 10 34 2e 3d ae af e1 be 53 81 a9 bd
       -0.013933989 0.04253012 -0.44079345 -0.0827662
000060 7e 50 bf bc 81 ca cb bb 88 1c 32 3c 6a 5e 63 3d
       -0.023353811 -0.0062192087 0.01087106 0.055509962
000070 63 f8 94 3e 07 0a af bd 48 65 fd bd 50 5c 59 be
       0.29095754 -0.085468344 -0.123728335 -0.2122662

fc.weight f4 [10, 6272]
000000 80 ba 75 bc b8 87 15 bb c8 f9 b9 bc 73 69 14 ba
       -0.014998078 -0.002281649 -0.022702113 -0.0005661465
000010 73 8e b0 bc 97 52 90 3b f5 04 b1 bc 38 c5 d7 bc
       -0.0215523 0.0044043767 -0.021608809 -0.026339158
000020 7b 0f 81 bc bc 0c 11 bc e3 28 d0 3b 96 82 1f bc
       -0.015754452 -0.008853134 0.0063525303 -0.009735724
000030 a4 3a 1a bc 3a 0e d7 bb f9 6c 11 3c 39 3d 17 3b
       -0.009413395 -0.0065629752 0.008876079 0.0023077263
000040 cf 2a 52 bc 3d db 2d bd 25 5f 25 bc 65 ae 75 3a
       -0.012827589 -0.04244541 -0.010093485 0.0009371995
000050 38 44 04 bc 8c 6a d5 3a 10 3d 41 bc fc 4a 0b 3b
       -0.008072905 0.0016282364 -0.011794344 0.002125441
000060 dd b9 65 bc c1 4c 9c bc 1a db 18 bd cd 4a 37 bc
       -0.014021364 -0.019079568 -0.037318327 -0.0111872675
000070 c9 a0 be 3a d2 28 90 3b 3f ac 17 bd a6 a8 0c bd
       0.0014543767 0.0043993974 -0.0370295 -0.034340523
000080 32 50 c8 bc e7 f8 87 bc 6c 2f e0 bb 0f 7a 8f bc
       -0.024452303 -0.016598178 -0.0068415906 -0.017514257
000090 c6 20 63 bb 43 e2 b5 bc 06 7e 11 bd 84 fc 2c bd
       -0.0034656986 -0.022202617 -0.035520576 -0.042233005
0000a0 1c 5e 02 bd 22 bd a0 bc 6f 84 ff bb 04 b2 71 bc
       -0.03182803 -0.019621436 -0.0077977697 -0.014751915
0000b0 ed a8 db bc 81 85 95 bc 79 2f c4 3a 5c 82 ea bb
       -0.026813949 -0.018252136 0.0014967761 -0.0071566533
0000c0 f3 0d 5f 3b 2e 4b 49 bc 2b 0e b8 3b f9 cd 20 bc
       0.0034035414 -0.012285991 0.0056169233 -0.009814733
0000d0 4d bb 87 bc 93 d1 87 bc 13 cd bd bc a3 14 ae bc
       -0.016568804 -0.016579425 -0.023169076 -0.021250075
0000e0 31 c3 b0 bc 2f 60 f9 bc eb d2 99 bb dc 91 af 39
       -0.02157745 -0.030441372 -0.004694333 0.00033487275
0000f0 cb 51 73 bc 7d 11 c3 bc 1d 09 64 3c 08 16 39 bc
       -0.014851044 -0.02381205 0.013918188 -0.011296757
000100 20 e7 a7 bc 59 84 fd 3b 4d af 86 3c 80 d9 1f 3c
       -0.020495951 0.0077367243 0.016441012 0.009756446
000110 a3 a5 06 3c c3 39 d1 3b cb e2 e1 bc bf 97 a6 bc
       0.008218202 0.0063850596 -0.027573964 -0.02033603
000120 c5 a7 3a bb 91 12 09 3a 6b 2e 4d bc 14 41 c4 3b
       -0.0028481346 0.0005228902 -0.012523274 0.005989203
000130 b4 00 45 3c 89 85 80 bc b8 8c a4 bc a6 6c 64 3c
       0.012024093 -0.015688675 -0.020086631 0.013941919
000140 0c e7 c9 3c 54 17 ba 3c 46 44 97 3c 6d b1 64 3c
       0.024646305 0.022716202 0.018465172 0.013958317
000150 ac 20 8e bc a2 10 71 bc 07 43 a2 bc ec c5 e1 bc
       -0.017349564 -0.014713438 -0.019807352 -0.027560197
000160 ac ea 24 bc 3a 04 b6 38 83 ec e6 3c b4 52 c9 bb
       -0.010065716 8.6792235e-05 0.02818895 -0.006143892
000170 ad 92 d7 bc 8b 6a 7e bc ef 01 2a 3b ef c9 90 bb
       -0.026315058 -0.0155283315 0.0025941094 -0.0044186036
000180 e2 b8 8e bc 4b 59 4e 3c b0 52 20 3a b0 da b7 bc
       -0.017422143 0.012594531 0.0006115837 -0.022443146
000190 13 27 90 bc 29 37 27 bc 0b 33 c2 3b 21 ef 92 3b
       -0.017596757 -0.010206022 0.005926495 0.004484073
0001a0 10 2c eb 3c 14 84 00 3d 80 42 79 bc 60 42 ed ba
       0.028707534 0.03137596 -0.015213609 -0.0018101446
0001b0 92 53 00 bb f6 2b e3 bb 92 b4 d4 bc 5f ef ae ba
       -0.0019581062 -0.006932731 -0.025965009 -0.0013346485
0001c0 eb 47 31 3c 77 fb 93 bc 46 9f d6 bc 69 19 1c bc
       0.010820369 -0.018064244 -0.026198994 -0.009527543
0001d0 84 04 91 3c 7a 3a fc 3c a1 9a af 3c 48 75 c4 3c
       0.017702349 0.030789603 0.021436037 0.023981705
0001e0 18 a6 81 3b bd d6 d9 ba cc 7b df ba 39 37 d6 bc
       0.0039565675 -0.0016619783 -0.0017050444 -0.02614938
0001f0 64 39 76 bc 8a 9e 8c 39 29 66 65 3c 15 80 1a bc
       -0.015028331 0.00026821002 0.014001408 -0.009429951
000200 9a ec 0c bd 54 f5 0d bd ef 03 3a bc e8 8d 6e 3c
       -0.03440533 -0.03465779 -0.011353477 0.0145602
000210 77 dc 09 3d 60 7b d3 3c b9 e4 46 3c f0 64 06 bd
       0.033657517 0.025815666 0.012139493 -0.032811105
000220 29 f5 18 bd 3e ef 28 bd b6 2f 77 bc 6b 42 09 3c
       -0.037343178 -0.041243784 -0.015087059 0.008377652
000230 d3 47 d9 bb 96 b9 d9 bc 21 de d8 bc 3f ba 1b bd
       -0.0066308766 -0.026577752 -0.026473107 -0.038019415
000240 1d 28 3b bc 0f b4 44 bb d7 a7 d3 3c 76 cd 1f 3d
       -0.011423138 -0.003001455 0.025836868 0.039014302
000250 e9 b5 22 3c 6d 0c e5 bb 48 a3 cf bc 5c 1c 67 bc
       0.009931066 -0.0069900067 -0.025346413 -0.0141058825
000260 cd 95 08 bb 17 6c 05 3d 7f ae 38 3c 53 29 78 bc
       -0.0020841241 0.032573786 0.011272072 -0.015146571
000270 8e eb 6a bc 77 e2 ac bc 56 a7 f3 bb 50 26 b1 3b
       -0.014338387 -0.02110408 -0.0074357195 0.0054061785
000280 a8 71 17 3d 62 c9 b0 3c 48 98 6d 3c 8a bb fa bc
       0.036973625 0.021580402 0.014501639 -0.030607004
000290 78 3e ce bb 1a 34 06 bc e6 dc d3 3b 97 15 23 3d
       -0.006294068 -0.008191133 0.006465542 0.03981551
0002a0 b4 64 9a 3c fe 13 2d 3b 70 7c 37 3c 91 0b 1a 3c
       0.018846847 0.0026409621 0.011199102 0.009402172
0002b0 2d bf 84 3c eb 9b 1c 3c fb 8c e3 3c 47 72 ce 3c
       0.016204441 0.009558658 0.027777186 0.025200976
0002c0 30 8e 12 3c 4e 41 b0 bc e3 32 f7 bc 84 c8 03 bc
       0.008945033 -0.021515515 -0.030175632 -0.008043412
0002d0 c9 e1 05 bc da 24 3d 3c fa 0f 5a 3c 2e b3 24 3c
       -0.008171507 0.011544431 0.013309473 0.010052485
0002e0 9a 73 8e 3b dc 78 02 bc 15 31 ab 3b e0 75 e8 3c
       0.004347277 -0.007963385 0.005224357 0.02837652
0002f0 07 3c 6f 3c d8 46 a4 ba 79 ef 35 3c 7b cc a5 bc
       0.014601714 -0.001253332 0.011104458 -0.020239105
000300 69 a6 63 bc aa 17 09 bb fa cc 25 3c b2 95 2d 3b
       -0.013894656 -0.0020918646 0.010119671 0.002648693
000310 23 45 92 ba d0 7b fd 3c 89 29 88 bb 79 ec d2 b8
       -0.001115952 0.030942827 -0.004155342 -0.00010057627
000320 c4 69 56 3a 38 0b 89 bc 5c 7f 36 bc 8d 4f 90 bc
       0.00081792125 -0.016728982 -0.011138763 -0.017616058
000330 c9 b8 47 bc be f1 8c 3c 2b 77 f8 b9 2d 9e c3 3a
       -0.012190052 0.017205115 -0.00047391033 0.0014924459
000340 28 7c cb 3c 3c c9 e5 3c 77 30 2a bb bb 06 a2 ba
       0.024839476 0.028050058 -0.0025968829 -0.0012361625
000350 13 f6 d4 bc f5 8f bd bc 27 0b f0 bc 65 b3 64 bd
       -0.025996244 -0.023139933 -0.029302193 -0.055835146
000360 d4 9b 1d bd c4 f3 0b bd 22 39 58 bc f5 6a 5f bc
       -0.038478687 -0.03416802 -0.013197215 -0.01363634
000370 1a 25 53 bb 53 00 5c 3c b7 18 b1 3c 6b 33 3d 3d
       -0.003221816 0.013427812 0.02161823 0.046191614
000380 64 40 a5 bc 73 c9 6d bc 3d 76 be ba a3 9e b3 bc
       -0.020172305 -0.014513361 -0.0014531087 -0.02192623
000390 cd 37 41 bc 32 77 6c bd 55 09 95 bc 76 87 e9 bc
       -0.011793089 -0.05773086 -0.018192926 -0.028506976
0003a0 d2 50 cb bc 36 ca 34 bd dc 90 86 bc 89 c8 20 3b
       -0.024818812 -0.044138156 -0.016426496 0.002453359
0003b0 4d c6 97 3c 02 f2 88 3b 0a 86 07 bc 2e 03 72 bc
       0.018527174 0.00417924 -0.0082717035 -0.014771266
0003c0 39 d2 3e bc 44 1b f8 bc dd 98 29 bd 1c c6 7a bc
       -0.011646801 -0.030286439 -0.041405547 -0.015306022
0003d0 32 d4 81 bc 08 cd bf bc d8 12 02 bc cf af dc bb
       -0.015848253 -0.023413196 -0.007939063 -0.006734825
0003e0 ec b7 0b 3c 24 d2 18 3d 50 c4 07 3d 8d 08 16 3d
       0.008527737 0.03730978 0.033146203 0.03662925
0003f0 b3 aa 3a 3c 05 f5 5a 3c 56 f1 0f 3b c8 5d a1 3c
       0.011393237 0.013364081 0.0021963916 0.019698039

fc.bias f4 [10]
000000 9d 1a 56 3c 51 38 f0 bd 49 a7 69 3d b2 b9 f2 3c
       0.013067869 -0.117294915 0.0570443 0.029629562
000010 b1 fb b1 3d c1 af 65 3c d1 9b 7d bd f6 01 04 bd
       0.086905845 0.014018954 -0.061916176 -0.032228433
000020 03 dc a1 3d 02 b8 ce bd
       0.07903292 -0.100936905
