HW3/Q1/best_Model4.pth (torch, 244144 bytes, 6 tensors)

conv1.weight f4 [32, 3, 3, 3]
-0.13015251 0.1393837 -0.0820866 0.17338793 0.26591304 0.1818617 0.17469133 0.017054684
-0.025227487 0.16735038 0.2229735 0.19771841 -0.11323356 0.07773761 0.1125957 0.15226793
0.08920031 0.17095771 0.26611558 0.054750662 0.29199037 0.24209027 0.30708456 0.29259986
0.14373836 0.17343408 0.29151556 0.3395742 0.38622168 0.25404555 0.22406341 0.145563
0.22863542 0.21216853 0.13744204 0.058855984 -0.19838049 -0.19772138 -0.11378697 -0.40860373
-0.35954285 -0.18307105 -0.3780637 -0.1864121 -0.038423426 -0.22961397 0.10374855 0.04121686
-0.010817425 -0.25041336 -0.10643163 -0.25917557 -0.28572688 -0.16561328 0.17941311 0.13732067
0.13048366 -0.3767091 -0.1975149 -0.46486023 0.08568517 0.041112237 -0.085369445 0.15469205
0.22090232 -0.1576137 -0.15977833 0.13367279 -0.15045941 0.040683877 0.27729374 -0.08713378
-0.05263517 0.26196775 0.15772597 -0.13749608 -0.17234401 -0.0837119 -0.005921202 0.1480381
0.14075553 0.32347742 0.21060945 0.16756713 0.29631603 0.05418544 0.038323313 0.13800573
-0.1798572 0.082417294 -0.069254175 -0.033121232 -0.18553214 0.04904949 -0.11148464 -0.265616
-0.20315884 -0.19076182 -0.31703404 0.32363364 -0.058407098 -0.061847292 0.33156094 -0.06386038
-0.12508191 0.2101578 -0.2877368 -0.15070884 0.104308784 0.1842184 -0.05884119 -0.33972606
-0.4534571 -0.31324202 0.20663401 0.40182644 0.32330513 0.0068917293 -0.027727561 0.09486382
-0.23452972 -0.42104116 -0.17722365 0.32057244 0.3514879 0.03636874 -0.09941795 0.14536235
0.27623123 -0.12037776 -0.3159899 -0.3140655 0.28471866 -0.0034532107 0.16869037 -0.011755219
-0.045925736 -0.044012833 -0.106778696 -0.028710188 -0.10564211 -0.09475816 -0.1888327 0.051589258
-0.022850651 -0.23904102 -0.23004152 -0.105236664 -0.2385697 -0.046221524 -0.0823565 0.030290354
0.090930715 -0.013642618 0.021917585 -0.28126454 -0.16489021 -0.24428378 -0.15216401 0.19072866
0.0067023924 -0.013763049 -0.08862722 0.096732855 -0.10195227 -0.22351012 0.032002382 0.050440826
0.001155641 0.0033342722 -0.0510769 -0.14628746 0.12549424 0.0489917 -0.259773 0.07648491
0.12938498 0.09383388 0.24047548 0.09622227 -0.11459684 0.031571336 -0.12053937 -0.16542086
0.009385734 -0.23526849 0.053547077 0.26472056 0.16694146 -0.3013673 -0.33467606 -0.13116874
-0.35231322 -0.26982945 -0.15168537 -0.16653493 -0.30875066 -0.21920265 0.13289316 -0.04354031
-0.0015150727 0.043984484 0.23531553 0.27206975 -0.03618004 -0.086025715 -0.055765174 0.21029451
0.1723866 0.18753819 0.2097466 0.20600347 0.15951806 0.102459945 0.20956008 0.13369998
0.26713827 0.23240808 -0.4177328 0.27342424 -0.31028754 -0.089165226 -0.25800517 -0.037322503
0.32636362 0.43054304 -0.033084247 -0.24069779 0.064358585 -0.19408251 -0.061574597 -0.3618879
-0.04471397 0.4521354 0.32226628 -0.11846737 -0.36308476 0.08687978 -0.10763836 0.09190651
-0.30251616 -0.074406065 0.42412147 -0.07036 -0.16095524 0.48812088 0.17841138 -0.2690616
0.4802734 -0.05890098 -0.40089768 0.01608398 -0.14163361 -0.14838496 0.23979944 -0.24704717
00000000: b346 05be 9aba 0e3e 051d a8bd 9b8c 313e
00000010: c125 883e f439 3a3e 49e2 323e 44b6 8b3c
00000020: e0a9 cebc e65d 2b3e 2a53 643e b276 4a3e
00000030: ffe6 e7bd e534 9f3d 9398 e63d 20ec 1b3e
00000040: a7ae b63d 8a0f 2f3e 4d40 883e 3b42 603d
00000050: c37f 953e 83e6 773e 303a 9d3e a6cf 953e
00000060: 2630 133e b498 313e 8741 953e abdc ad3e
00000070: d9be c53e 4212 823e e170 653e 780e 153e
00000080: 671f 6a3e b542 593e 9bbd 0c3e f912 713d
00000090: 4124 4bbe 7977 4abe 2509 e9bd 8234 d1be
000000a0: 0016 b8be fa76 3bbe 9191 c1be d0e2 3ebe
000000b0: e261 1dbd ed1f 6bbe 1f7a d43d 03d3 283d
000000c0: 923b 31bc 2e36 80be d4f8 d9bd a9b2 84be
000000d0: cb4a 92be 8796 29be 12b8 373e ca9d 0c3e
000000e0: 829d 053e 04e0 c0be 5941 4abe 2902 eebe
000000f0: b57b af3d 4e65 283d 2dd6 aebd 9867 1e3e
00000100: 3834 623e 7c65 21be ee9c 23be 85e1 083e
00000110: 0812 1abe 23a4 263d 72f9 8d3e 3273 b2bd
00000120: fa97 57bd a320 863e eb82 213e c6cb 0cbe
00000130: f37a 30be 2571 abbd a406 c2bb 4d97 173e
00000140: 3822 103e d59e a53e 01aa 573e b896 2b3e
00000150: bcb6 973e 8df1 5d3d e8f8 1c3d 6051 0d3e
00000160: 7c2c 38be 66ca a83d 22d5 8dbd 21aa 07bd
00000170: 23fc 3dbe 1ee8 483d 0f52 e4bd d2fe 87be
00000180: df08 50be 1157 43be 4952 a2be 4fb3 a53e
00000190: 483c 6fbd 9653 7dbd 5bc2 a93e 3bc9 82bd
000001a0: 7915 00be 9b33 573e 3d52 93be 6b53 1abe
000001b0: d89f d53d c0a3 3c3e 7603 71bd 93f0 adbe
000001c0: 872b e8be 4261 a0be de97 533e 32bc cd3e
000001d0: 4088 a53e 04d4 e13b e924 e3bc f647 c23d
000001e0: 8f28 70be b592 d7be 1e7a 35be 1222 a43e
000001f0: 39f6 b33e 63f7 143d a39b cbbd ded9 143e
00000200: 2e6e 8d3e 9d88 f6bd 6ec9 a1be 31cd a0be
00000210: a5c6 913e 434f 62bb 2bbd 2c3e f698 40bc
00000220: a01c 3cbd cd46 34bd caae dabd a131 ebbc
00000230: e45a d8bd 9110 c2bd 5c5d 41be 424f 533d
00000240: 4a31 bbbc 2bc7 74be 0190 6bbe 5286 d7bd
00000250: 9e4b 74be c852 3dbd 86aa a8bd 7a23 f83c
00000260: e239 ba3d 4a85 5fbc 828c b33c e801 90be
00000270: fbd8 28be 8725 7abe e2d0 1bbe 604e 433e
00000280: be9f db3b 697e 61bc 3082 b5bd e01b c63d
00000290: 5acc d0bd d6df 64be ee14 033d 0a9b 4e3d
000002a0: e178 973a ce83 5a3b 0336 51bd 61cc 15be
000002b0: 9081 003e 85ab 483d f700 85be 1fa4 9c3d
000002c0: 7f7d 043e fa2b c03d 343f 763e 2e10 c53d
000002d0: c0b1 eabd f250 013d 58dd f6bd 1664 29be
000002e0: 9fc6 193c 39ea 70be 2e54 5b3d 7489 873e
000002f0: b4f2 2a3e d14c 9abe a95a abbe 1951 06be
00000300: 6662 b4be 1627 8abe 6953 1bbe 2288 2abe
00000310: 9114 9ebe a976 60be 2515 083e 5357 32bd
00000320: 6795 c6ba 1329 343d 8ef6 703e ba4c 8b3e
00000330: 8631 14bd 402e b0bd 066a 64bd 7257 573e
00000340: 1d86 303e 030a 403e d0c7 563e 93f2 523e
00000350: b458 233e 85d6 d13d eb96 563e a6e8 083e
00000360: 59c6 883e 62fc 6d3e 13e1 d5be 43fe 8b3e
00000370: 02de 9ebe 429c b6bd 4119 84be 7bdf 18bd
00000380: 2219 a73e 2370 dc3e 5983 07bd 7b79 76be
00000390: 6fce 833d 91bd 46be a535 7cbd 5f49 b9be
000003a0: ff25 37bd 4b7e e73e 1600 a53e 059f f2bd
000003b0: 3fe6 b9be 07ee b13d 8071 dcbd 7b39 bc3d
000003c0: 66e3 9abe 3562 98bd 7326 d93e e718 90bd
000003d0: 73d1 24be fbea f93e 79b1 363e 71c2 89be
000003e0: 65e6 f53e 2742 71bd 7642 cdbe 8dc2 833c
000003f0: 6708 11be 3af2 17be fc8d 753e eff9 7cbe

conv1.bias f4 [32]
-0.07395769 -0.28540504 0.13532576 0.038783308 0.047459606 -0.14038128 0.028201517 0.33553022
-0.013233817 0.05094934 -0.15897481 0.3183621 0.21335399 -0.1326628 0.0460126 0.35997188
0.26598647 0.038386147 0.14177471 0.17455174 -0.0635606 -0.13133748 0.08946271 0.061620038
0.0038249956 0.120261416 -0.3210058 0.5139475 0.15633394 0.19679675 0.05355444 0.121145755
00000000: 2177 97bd 9c20 92be d692 0a3e 3fdb 1e3d
00000010: 0165 423d 1cc0 0fbe de06 e73c 9eca ab3e
00000020: a7d2 58bc 41b0 503d 4bca 22be 5b00 a33e
00000030: 7879 5a3e c2d8 07be b577 3c3d 3c4e b83e
00000040: 612f 883e cb3a 1d3d 642d 113e b1bd 323e
00000050: 0f2c 82bd 557d 06be 3a38 b73d 4b65 7c3d
00000060: c7ac 7a3b 9e4b f63d df5a a4be 1092 033f
00000070: 0116 203e 1685 493e e75b 5b3d 441b f83d

conv2.weight f4 [64, 32, 3, 3]
0.12373276 0.15268497 0.09498043 -0.04026572 -0.046790004 0.014647836 -0.11781693 -0.11822891
-0.060313836 0.05747059 0.046113294 -0.034193125 -0.009405352 0.009301634 -0.045610778 0.058446813
0.06075147 0.044772338 -0.0145172225 -0.016911462 0.040289167 -0.0042497367 0.042290743 0.0014732449
0.011221405 -0.014520232 0.028605144 0.013987808 0.04540793 0.026807597 0.006924326 0.012877322
0.03045002 0.0785705 -0.035720024 0.08218964 -0.012527168 -0.06847534 -0.08080192 -0.03164084
-0.00916586 -0.097852975 -0.03589828 -0.08019306 0.011174007 -0.1657554 -0.16059725 -0.052582677
-0.016746175 -0.016689241 -0.06179219 0.08843609 0.03663238 0.03612685 0.023376869 0.017940648
-0.05949811 -0.0066324584 -0.05504845 0.017208032 -0.013150667 -0.046744466 0.015154814 0.018454108
0.045381483 -0.027698973 -0.014275815 0.01778645 0.038057335 -0.005120495 0.07487739 -0.0075574075
-0.09795892 0.017774273 -0.041438174 0.02670438 0.03665448 -0.03533165 -0.007604751 -0.041208602
0.00071099144 -0.06083981 0.024611872 -0.00048083294 0.0744778 0.065493554 -0.0035801192 0.0864216
0.09327365 0.13767356 0.0618495 0.06293071 0.08112922 0.011034247 0.0029707085 0.0400234
-0.02133012 -0.07233217 -0.06271876 0.05853654 0.07724224 -0.005212516 -0.009527872 -0.031695925
-0.0316676 0.078170806 -0.0027700106 0.024744682 -0.043788366 -0.018314341 -0.07022275 -0.07295485
-0.035044406 -0.08071209 0.14630157 0.11219415 0.18052886 0.12093126 0.06821985 0.054568447
0.052506343 0.06790602 -0.063501514 0.07282658 0.051156722 0.100799724 0.0039665196 -0.0053446596
0.03025896 -0.02147312 -0.042308975 0.057784505 0.036341276 -0.032008767 -0.07417517 0.10769304
0.07710852 0.03468546 -0.03947395 0.07609712 -0.027495282 0.004002089 0.031664994 -0.010256225
-0.07464293 -0.060536046 -0.06592176 -0.08015478 -0.06675842 -0.054160036 -0.064478144 -0.07303087
-0.03738499 0.07771214 0.1033719 -0.008795628 -0.07209621 0.0045193494 -0.019434493 -0.016867077
-0.080514565 0.024543934 0.014446939 0.0792228 0.015757892 -0.02710803 0.07852983 0.046866566
0.12918194 0.072915114 0.056059185 -0.029399322 0.029835349 0.0750884 0.025667014 -0.07563327
-0.056755483 -0.11286081 -0.05651675 -0.024017416 0.18239377 0.18257567 0.18580058 0.06854069
0.0147761535 -0.06297686 -0.020757055 0.08128724 0.10478548 0.020201614 -0.027002063 -0.042520184
0.012564255 -0.07765961 0.024962867 -0.040177863 -0.07187369 -0.012253039 0.0010348504 -0.013864344
0.07633108 0.04805103 0.03251634 0.1142851 0.10118807 0.05685739 0.08226368 0.03601182
-0.0052475715 -0.109123185 0.0029296011 0.008984903 -0.0062592905 -0.040971562 -0.051946286 -0.08161071
0.06039316 0.04481846 -0.028166395 0.0035257484 -0.017657373 0.034882843 -0.054783996 -0.03971333
0.009226693 -0.12932357 -0.12267862 -0.05599309 -0.16530474 -0.058931254 -0.114819884 -0.12388398
-0.13955066 -0.13365622 -0.027368452 -0.099658266 -0.0051268768 -0.052556142 -0.10535615 -0.004233689
0.0374477 -0.033926107 0.031294093 0.08787089 0.13931029 0.040952083 0.005286492 -0.03335385
-0.00069074746 -0.09040034 -0.12746517 -0.0495353 -0.085866846 -0.13301702 -0.057078876 -0.026164908
00000000: 9a67 fd3d 7359 1c3e 1a85 c23d abed 24bd
00000010: e0a6 3fbd 7afd 6f3c 014a f1bd 0022 f2bd
00000020: a40b 77bd 4866 6b3d 4be1 3c3d 170e 0cbd
00000030: e818 1abc e165 183c 5ed2 3abd ed65 6f3d
00000040: 89d6 783d 3363 373d a5d9 6dbc e889 8abc
00000050: 4106 253d 6041 8bbb 0f39 2d3d e519 c13a
00000060: fcd9 373c 44e6 6dbc 5655 ea3c 1e2d 653c
00000070: aafd 393d 9b9b db3c 75e5 e23b 67fb 523c
00000080: 5272 f93c 92e9 a03d 294f 12bd 0b53 a83d
00000090: c03e 4dbc cd3c 8cbd 7a7b a5bd d399 01bd
000000a0: 672c 16bc 2467 c8bd 130a 13bd 423c a4bd
000000b0: 2f13 373c c9bb 29be 9b73 24be ef60 57bd
000000c0: 462f 89bc e0b7 88bc cf19 7dbd fb1d b53d
000000d0: d60b 163d bff9 133d d980 bf3c 44f8 923c
000000e0: 4ab4 73bd 1855 d9bb 7c7a 61bd dcf7 8c3c
000000f0: e575 57bc 2077 3fbd e64b 783c 122d 973c
00000100: efe1 393d f5e8 e2bc 1ce5 69bc e4b4 913c
00000110: 02e2 1b3d d3c9 a7bb 5159 993d 21a4 f7bb
00000120: b09e c8bd 5a9b 913c 13bb 29bd 25c3 da3c
00000130: 0223 163d ecb7 10bd 4631 f9bb 5aca 28bd
00000140: d461 3a3a 2a33 79bd d69e c93c 4e18 fcb9
00000150: d187 983d 7c21 863d 6fa0 6abb cffd b03d
00000160: 4106 bf3d 4cfa 0c3e e755 7d3d d1e1 803d
00000170: 1427 a63d fdc8 343c 38b0 423b 94ef 233d
00000180: 81bc aebc e422 94bd b172 80bd 03c4 6f3d
00000190: 2e31 9e3d c1cd aabb cb1a 1cbc 96d3 01bd
000001a0: e3b5 01bd 0418 a03d 1189 35bb 5cb5 ca3c
000001b0: 6e5b 33bd f507 96bc f2d0 8fbd 5a69 95bd
000001c0: b98a 0fbd 614c a5bd 14d0 153e 0cc6 e53d
000001d0: 8fdc 383e cfaa f73d d9b6 8b3d 2a83 5f3d
000001e0: e410 573d 5012 8b3d 150d 82bd 1a26 953d
000001f0: b689 513d 1670 ce3d 94f9 813b 4122 afbb
00000200: a3e1 f73c 66e8 afbc 2d4c 2dbd 72af 6c3d
00000210: 97da 143d a01b 03bd 27e9 97bd 2b8e dc3d
00000220: 12eb 9d3d 5712 0e3d 70af 21bd cfd8 9b3d
00000230: c93d e1bc f523 833b 27b3 013d ba09 28bc
00000240: 64de 98bd a5f4 77bd fd01 87bd 3028 a4bd
00000250: a3b8 88bd ead6 5dbd 1e0d 84bd 3591 95bd
00000260: 0121 19bd 8b27 9f3d a6b4 d33d 8a1b 10bc
00000270: 2ea7 93bd 0d17 943b 1635 9fbc d32c 8abc
00000280: d2e4 a4bd 5c10 c93c dbb2 6c3c 903f a23d
00000290: b216 813c a911 debc 3fd4 a03d 28f7 3f3d
000002a0: 4548 043e 8554 953d 519e 653d d9d6 f0bc
000002b0: 4369 f43c f2c7 993d a143 d23c 9ee5 9abd
000002c0: 7078 68bd 9123 e7bd 1c7e 67bd 2cc0 c4bc
000002d0: 6fc5 3a3e 1ef5 3a3e 8242 3e3e 105f 8c3d
000002e0: ae17 723c 03fa 80bd b30a aabc ed79 a63d
000002f0: c599 d63d db7d a53c 6e33 ddbc a529 2ebd
00000300: 4eda 4d3c 000c 9fbd ed7e cc3c 8b91 24bd
00000310: 8332 93bd f8c0 48bc d1a3 873a 4627 63bc
00000320: 7853 9c3d 28d1 443d db2f 053d 4e0e ea3d
00000330: b13b cf3d 4be3 683d dc79 a83d 2181 133d
00000340: d2f3 abbb fa7b dfbd 8dfe 3f3b 6a35 133c
00000350: bc1a cdbb ccd1 27bd a1c5 54bd 8423 a7bd
00000360: d15e 773d 9093 373d 36bd e6bc 3e10 673b
00000370: 32a6 90bc 50e1 0e3d 2f65 60bd 72aa 22bd
00000380: 8e2b 173c 666d 04be ee3e fbbd 0359 65bd
00000390: a545 29be e661 71bd b026 ebbd e2b6 fdbd
000003a0: 5ee6 0ebe 2ddd 08be ce33 e0bc a219 ccbd
000003b0: 5cff a7bb 1c45 57bd f7c4 d7bd c2ba 8abb
000003c0: c262 193d 1af6 0abd 3c2e 003d a7f5 b33d
000003d0: 5ba7 0e3e 5fbd 273d 4f3a ad3b 0c9e 08bd
000003e0: 4713 35ba d023 b9bd 3b86 02be 87e5 4abd
000003f0: f5da afbd 9d35 08be 8acb 69bd ca57 d6bc

conv2.bias f4 [64]
-0.061595622 0.18178324 -0.15825972 -0.06544378 -0.008691915 0.07815412 0.08220644 0.17255409
0.0058175125 -0.06860512 0.060444705 -0.010790464 -0.02003838 0.017306978 -0.14713614 0.013614646
0.08144103 -0.07774427 0.17846565 0.21026969 0.16372897 -0.08701702 -0.11251235 -0.064659216
-0.18145591 -0.035844244 0.1668317 -0.04190202 0.071004845 -0.2151549 0.013523452 0.012441282
0.03280916 0.066247396 0.22427398 -0.10655213 0.0027972409 -0.12844367 -0.121763304 -0.1375525
0.02134576 -0.11106765 0.1417626 -0.1123904 0.07934505 0.09320587 0.17464311 0.08198324
-0.10335205 -0.048811264 -0.09255917 0.2122769 -0.050818916 -0.048710026 0.14577729 0.03906733
-0.06045873 -0.03289403 -0.102431156 -0.12466451 -0.016632693 -0.02586614 0.018090678 0.07690675
00000000: b14b 7cbd 6325 3a3e d60e 22be 6307 86bd
00000010: 8968 0ebc 440f a03d da5b a83d 05b2 303e
00000020: d5a0 be3b d780 8cbd de94 773d 7cca 30bc
00000030: 8727 a4bc 5dc7 8d3c dbaa 16be f70f 5f3c
00000040: 8eca a63d 6338 9fbd b3bf 363e f050 573e
00000050: 91a8 273e fb35 b2bd e06c e6bd 0d6c 84bd
00000060: 94cf 39be 6ad1 12bd eed5 2a3e 74a1 2bbd
00000070: fd6a 913d 9151 5cbe 7891 5d3c 85d6 4b3c
00000080: e662 063d b7ac 873d 14a8 653e 0138 dabd
00000090: ea51 373b bd86 03be 0a5f f9bd 90da 0cbe
000000a0: 4edd ae3c 7077 e3bd 372a 113e f02c e6bd
000000b0: a87f a23d b8e2 be3d a5d5 323e d4e6 a73d
000000c0: 3daa d3bd 52ee 47bd aa8f bdbd 1e5f 593e
000000d0: 7f27 50bd 2a84 47bd a446 153e 1105 203d
000000e0: 93a3 77bd e4bb 06bd 6dc7 d1bd 1b50 ffbd
000000f0: 4941 88bc 3ae5 d3bc e732 943c 4981 9d3d

fc1.weight f4 [10, 4096]
0.015133866 -0.031420805 -0.02115178 0.015568726 0.02076341 0.033803243 -0.029155564 -0.020737529
-0.011476689 0.0023224112 -0.036083885 0.0069103097 0.0777596 0.021554317 -0.026051592 0.028305268
-0.10683554 -0.0694143 -0.004556587 -0.03260692 0.019391183 -0.0043308116 -0.036816817 -0.015053065
-0.07707141 0.0063197915 0.011436032 -0.0067799496 0.039326154 0.07524317 -0.06277073 -0.07928562
-0.058925666 -0.06551414 -0.039088555 0.023014857 0.028374007 0.07218453 -0.036298703 -0.09866055
-0.049614925 -0.075955816 -0.04912509 0.05468558 0.009651165 -0.030726839 -0.01697839 -0.05103188
-0.0054973084 -0.012948246 -0.01899067 -0.0014933031 0.024972854 -0.03323284 -0.019345203 -0.0776511
-0.00037211418 0.020448908 0.05064753 0.04303272 0.0093299225 0.024502756 0.012569527 0.041266695
0.05070994 0.054406825 0.029133843 -0.026245715 0.019680152 -0.007751649 -0.005075647 0.008149602
-0.004700643 0.029161349 0.03952938 -0.026716743 -0.010165363 -0.0065870387 0.037136387 -0.0052272044
0.043447863 0.03608309 0.0015625848 0.005779973 0.0056286124 0.0163236 0.04079247 0.00023682525
0.040567417 0.0429618 0.027482778 0.030962048 0.027624609 0.041460663 0.028778512 0.0088551
0.056658816 0.059811596 0.06324462 0.06451932 0.040802967 0.06629548 0.049551643 0.005813455
0.024233175 0.04413135 0.033978645 0.01370455 -0.009333147 -0.03758944 0.017243933 -0.009869395
0.016309502 -0.0017254812 0.0011481702 -0.006285047 0.034992352 -0.017642627 -0.0055401223 -0.0034293476
0.025962245 -0.005746023 -0.005592402 0.0014481869 -0.016085904 -0.03486803 0.028437411 0.04741688
0.0092838295 0.013177125 -0.008496549 -0.034838777 0.0018752782 -0.0014564302 -0.026079342 0.004701933
0.013588404 0.014760187 -0.024472916 -0.038338374 -0.033235908 -0.014283062 -0.012882271 0.0017924915
-0.003990354 0.03074328 -0.008069151 -0.025677815 -0.027680213 -0.0070315865 0.039245237 0.024887092
0.026137186 0.046647675 0.03913106 0.001373275 0.008806096 0.035302002 0.042907424 0.054058164
0.033646043 0.069418706 0.062463813 0.014900668 -0.021192743 0.016125277 0.046129853 0.029518612
0.03920416 0.06962966 0.061560724 0.02627982 -0.026173051 0.055998586 0.051272094 0.03816293
0.012143699 0.028694421 0.005805429 -0.009541419 0.04222167 0.01770885 -0.018318133 -0.0030353803
0.028656596 0.023354454 0.03781721 0.034073427 -0.0024009265 -0.0068775997 0.006748601 0.028965132
-0.014069984 -0.010725896 -0.0019907893 -0.017452504 0.030098116 0.004118485 -0.041868713 -0.057646044
-0.023159433 -0.0045480686 0.0007377461 -0.02651219 0.018554984 -0.0113272015 -0.031514075 -0.028466074
0.017370198 -0.025831398 -0.014891563 -0.009146581 -0.022064889 -0.04362154 -0.03033195 -0.0062280414
0.010115669 0.022988344 0.0013269957 -0.010361154 -0.031696916 0.038640793 0.013621383 -0.0033549918
0.017437072 0.054908153 0.009801966 0.0149619235 -0.01957178 0.02023776 0.04660668 -0.010034368
0.025022639 0.05594097 0.022248892 0.03594542 0.022541448 0.039703533 0.10480752 -0.012225861
0.028864365 0.010943511 -0.01919223 0.035689875 -0.002804714 0.025714055 0.050799727 0.047723643
-0.04770483 -0.018757915 -0.012902278 -0.0137345465 -0.033737913 -0.06896358 -0.015628858 0.024625378
00000000: 09f4 773c 1ab3 00bd 7f46 adbc f813 7f3c
00000010: 0718 aa3c 4575 0a3d a6d7 eebc c0e1 a9bc
00000020: b908 3cbc 9833 183b b2cc 13bd e16f e23b
00000030: 6d40 9f3d ae92 b03c 266a d5bc 73e0 e73c
00000040: 97cc dabd 1629 8ebd 6c4f 95bb d58e 05bd
00000050: 42da 9e3c 7be9 8dbb 3bcd 16bd 21a1 76bc
00000060: 9ed7 9dbd 4116 cf3b 325e 3b3c 572a debb
00000070: 7614 213d 1719 9a3d f18d 80bd 8060 a2bd
00000080: 0a5c 71bd 472c 86bd 521b 20bd a789 bc3c
00000090: 9b70 e83c 7cd5 933d f3ad 14bd 8b0e cabd
000000a0: 0539 4bbd b98e 9bbd 6437 49bd fdfd 5f3d
000000b0: ec1f 1e3c dab6 fbbc 4416 8bbc ce06 51bd
000000c0: c422 b4bb e124 54bc 5292 9bbc f0ba c3ba
000000d0: df93 cc3c 291f 08bd d579 9ebc 8a07 9fbd
000000e0: 5218 c3b9 7884 a73c c973 4f3d 1443 303d
000000f0: 88dc 183c 01ba c83c 6bf0 4d3c 4407 293d
00000100: 3ab5 4f3d b1d9 5e3d 19aa ee3c 4101 d7bc
00000110: 4538 a13c 8b01 febb 9d51 a6bb e985 053c
00000120: da07 9abb c8e3 ee3c 8fe9 213d 12dd dabc
00000130: 9f8c 26bc 16d8 d7bb 531c 183d f848 abbb
00000140: 63f6 313d ddcb 133d a5cf cc3a ee65 bd3b
00000150: 3970 b83b 12b9 853c 0116 273d 4b54 7839
00000160: 052a 263d b6f8 2f3d 9023 e13c 1fa4 fd3c
00000170: 014d e23c a8d2 293d eac0 eb3c fb14 113c
00000180: 1313 683d 01fd 743d 6586 813d b522 843d
00000190: 0321 273d edc5 873d aaf6 4a3d cc7e be3b
000001a0: a784 c63c 13c3 343d 312d 0b3d 0d89 603c
000001b0: 0eea 18bc 62f7 19bd 2643 8d3c 3eb3 21bc
000001c0: 819b 853c 8b29 e2ba 337e 963a ccf2 cdbb
000001d0: 2454 0f3d 4587 90bc ea89 b5bb e8be 60bb
000001e0: c6ae d43c 2249 bcbb 7840 b7bb 17d1 bd3a
000001f0: 96c6 83bc c8d1 0ebd 93f5 e83c 3438 423d
00000200: 341b 183c dee4 573c 1c35 0bbc 1bb3 0ebd
00000210: e5cb f53a b0e5 beba 58a4 d5bc ac12 9a3b
00000220: e6a1 5e3c b6d4 713c 6d7b c8bc b308 1dbd
00000230: 6022 08bd 8103 6abc 2910 53bc 09f2 ea3a
00000240: 84c1 82bb 55d9 fb3c 7934 04bc 485a d2bc
00000250: 9dc1 e2bc 3969 e6bb 9dbf 203d 04e0 cb3c
00000260: a71d d63c a211 3f3d e447 203d 76ff b33a
00000270: 7247 103c d598 103d b2bf 2f3d 186c 5d3d
00000280: 6fd0 093d 652b 8e3d 0eda 7f3d ee21 743c
00000290: 679c adbc 2819 843c a8f2 3c3d 04d1 f13c
000002a0: 8b94 203d ff99 8e3d 1927 7c3d c748 d73c
000002b0: de68 d6bc c65e 653d b002 523d bc50 1c3d
000002c0: 5ef6 463c 9010 eb3c 783b be3b 9d53 1cbc
000002d0: a1f0 2c3d 2612 913c e90f 96bc 3bed 46bb
000002e0: 3dc1 ea3c d751 bf3c 38e6 1a3d 9490 0b3d
000002f0: dd58 1dbb 7d5d e1bb 5e23 dd3b 4948 ed3c
00000300: ca85 66bc abbb 2fbc e777 02bb 8ef8 8ebc
00000310: 5390 f63c 5bf4 863b 877e 2bbd 421e 6cbd
00000320: dab8 bdbc f707 95bb 4d65 413a 1830 d9bc
00000330: 9f00 983c ba95 39bc e714 01bd af31 e9bc
00000340: f24b 8e3c 5e9c d3bc befb 73bc 8bdb 15bc
00000350: 6dc1 b4bc 80ac 32bd b67a f8bc 9914 ccbb
00000360: 31bc 253c 0d52 bc3c 96ee ad3a d4c1 29bc
00000370: a0d4 01bd cf45 1e3d 392c 5f3c 6cdf 5bbb
00000380: 31d8 8e3c 5fe7 603d 6d98 203c db22 753c
00000390: ff54 a0bc a9c9 a53c a5e6 3e3d 3167 24bc
000003a0: 47fc cc3c 5c22 653d 4f43 b63c 813b 133d
000003b0: d8a8 b83c 2ca0 223d 53a5 d63d fa4e 48bc
000003c0: f674 ec3c 694c 333c 0639 9dbc 8c2f 123d
000003d0: 4bcf 37bb 48a6 d23c 6013 503d de79 433d
000003e0: 2466 43bd 33aa 99bc 1464 53bc dd06 61bc
000003f0: c430 0abd c73c 8dbd 1708 80bc 29bb c93c

fc1.bias f4 [10]
0.017495522 -0.11072602 0.047871474 0.024325358 0.13308105 -0.0037104557 -0.03486889 -0.05692396
0.115297034 -0.08431259
00000000: c552 8f3c 53c4 e2bd e114 443d f945 c73c
00000010: 6646 083e 1e2b 73bb aed2 0ebd 1929 69bd
00000020: da20 ec3d 14ac acbd
